wrapped_rnn.pt (torch, 7731 bytes, 2 tensors)

weight f4 [4, 4]
0	0xbc43a3c0	-0.0119408965
1	0xbd9ae6e0	-0.07563567
2	0xbdeb2aa0	-0.114827394
3	0xbe023aa4	-0.12717682
4	0xbd9e75d8	-0.07737321
5	0xbe995eb0	-0.29955053
6	0xbefa11d6	-0.48841733
7	0x3e6056d8	0.21908128
8	0xbef14894	-0.47125685
9	0xbed9c586	-0.4253351
10	0x3e7d18cc	0.2471649
11	0x3e9257a4	0.2858249
12	0xbee11c86	-0.43967074
13	0x3e28faac	0.16501874
14	0xbe57831c	-0.21046108
15	0x3ee596c2	0.44841582

bias f4 [4]
0	0x3e7ef56c	0.24898309
1	0xbeac08ec	-0.33600557
2	0xbeb05f86	-0.3444788
3	0xbea7624e	-0.32692188
